…
           6       0.99      0.98      0.99       958
           7       0.97      0.99      0.98      1028
           8       0.97      0.97      0.97       974
           9       0.97      0.98      0.97      1009

   micro avg       0.98      0.98      0.98     10000
   macro avg       0.98      0.98      0.98     10000
weighted avg       0.98      0.98      0.98     10000

[INFO] Summary: 
_________________________________________________________________
Layer (type)                 Output Shape              Param #   
=================================================================
conv2d_1 (Conv2D)            (None, 28, 28, 6)         156       
_________________________________________________________________
activation_1 (Activation)    (None, 28, 28, 6)         0         
_________________________________________________________________
max_pooling2d_1 (MaxPooling2 (None, 14, 14, 6)         0         
_________________________________________________________________
conv2d_2 (Conv2D)            (None, 10, 10, 16)        2416      
_________________________________________________________________
activation_2 (Activation)    (None, 10, 10, 16)        0         
_________________________________________________________________
max_pooling2d_2 (MaxPooling2 (None, 5, 5, 16)          0         
_________________________________________________________________
flatten_1 (Flatten)          (None, 400)               0         
_________________________________________________________________
dense_1 (Dense)              (None, 120)               48120     
_________________________________________________________________
activation_3 (Activation)    (None, 120)               0         
_________________________________________________________________
dense_2 (Dense)              (None, 84)                10164     
_________________________________________________________________
activation_4 (Activation)    (None, 84)                0         
_________________________________________________________________
dense_3 (Dense)              (None, 10)                850       
_________________________________________________________________
activation_5 (Activation)    (None, 10)                0         
=================================================================
Total params: 61,706
Trainable params: 61,706
Non-trainable params: 0
_________________________________________________________________

   32/10000 [..............................] - ETA: 1s
  288/10000 [..............................] - ETA: 1s
  512/10000 [>.............................] - ETA: 2s
  672/10000 [=>............................] - ETA: 2s
…
